mnist_keras/weights/layer_1.npy (npy, 608 bytes, 1 tensors)

array f4 [12, 10]
000000 01 19 37 3d e8 c7 25 3d 0e 1f 34 3d b8 74 49 3d
       0.04470158 0.04047385 0.04397493 0.049183577
000010 1b 9a 30 3d 56 77 2d 3d ab fb 45 3d e2 e4 5b 3d
       0.043115716 0.042350136 0.048335712 0.053685077
000020 9c 50 34 3d c7 f9 3c 3d 32 1a d5 3d 74 24 ab 3d
       0.044022188 0.046136644 0.10405387 0.08356562
000030 e1 e5 b2 3d 03 38 c5 3d 50 be 6b 3d b5 af cc 3d
       0.08735252 0.09629824 0.057554543 0.09994451
000040 32 fa b3 3d a2 2e 75 3d c4 7f ac 3d de fa 6c 3d
       0.08787955 0.059858926 0.08422807 0.057856433
000050 93 d9 d8 bd 12 60 0d be 54 cf 04 be ec ef 0a be
       -0.10588374 -0.13806179 -0.12969714 -0.13568085
000060 dd 7b ea bd 40 8b 02 be 08 11 09 be 92 9e f0 bd
       -0.11449406 -0.12748432 -0.13385403 -0.11748995
000070 11 e1 02 be ac 05 fc bd 96 e1 69 3d 9a 5f 36 3d
       -0.12781169 -0.12305769 0.0570999 0.044524767
000080 86 34 16 3d 4d 10 20 3d 03 54 3f 3d 37 bb 48 3d
       0.036671184 0.039078046 0.04671098 0.049006667
000090 a4 e5 35 3d 57 ab 73 3d f8 4c a8 3c e5 73 47 3d
       0.044408455 0.059489574 0.020544514 0.04869451
0000a0 bf fd 14 3e 72 97 1b 3e 23 ec 18 3e 4a 6b f8 3d
       0.14549921 0.1519449 0.14933829 0.12129839
0000b0 a2 93 10 3e f1 1a 07 3e 64 b8 24 3e 88 6c fb 3d
       0.14118817 0.13193871 0.16085964 0.1227656
0000c0 bf 99 06 3e 87 3d 00 3e f9 fd d2 3d 00 91 b9 3d
       0.13144587 0.12523471 0.10302348 0.0906086
0000d0 c6 62 ea 3d 09 06 e0 3d 0f 2b f9 3d 80 8d 06 3e
       0.11444621 0.10938651 0.12166416 0.13139915
0000e0 2e 76 f4 3d 15 af cd 3d 97 7b f7 3d 24 be f0 3d
       0.119366035 0.1004316 0.1208412 0.117550164
0000f0 9b ee 84 bd 14 02 74 bd 8f 01 aa bd 11 cf 93 bd
       -0.06490823 -0.059572294 -0.083010785 -0.07217229
000100 f0 47 76 bd 84 b5 85 bd 33 cd 5a bd af 1e 89 bd
       -0.0601272 -0.06528762 -0.05341835 -0.066953056
000110 7b d9 82 bd 9d 16 8f bd 2c 96 de 3d d0 83 c3 3d
       -0.06389137 -0.06986735 0.10868487 0.095466256
000120 94 84 01 3e b1 68 ed 3d 61 f8 ea 3d 22 19 e0 3d
       0.12648231 0.11592234 0.11473156 0.10942294
000130 5d e7 e9 3d f5 26 ed 3d bc e0 e8 3d 08 3d c9 3d
       0.11421082 0.11579696 0.1137099 0.09826094
000140 99 52 d1 3c b9 c5 f4 3c af 6b e8 3c d4 7c 5a 3c
       0.025552081 0.029879438 0.02837166 0.013335425
000150 06 f1 5d 3c 3b 91 e1 3c fa 67 c1 3c b5 8d 1e 3d
       0.013546234 0.027535072 0.02360915 0.03870936
000160 1c 44 06 3d 1e 0d e6 3c 5d 71 09 3d 2b 96 b0 3d
       0.032779798 0.028082427 0.033555377 0.08622392
000170 f4 89 36 3d b8 4e 40 3d 8f d4 61 3d 40 6d 62 3d
       0.044565156 0.046950072 0.055134352 0.05527997
000180 69 39 26 3d 2c 94 58 3d 6f 78 4a 3d a0 62 5e 3d
       0.040582094 0.052875683 0.04943126 0.054293275
000190 d1 be 46 bd 7a ac 5e bd e4 0f 3d bd 26 54 42 bd
       -0.04852182 -0.054363705 -0.046157733 -0.04744353
0001a0 ac be 44 bd 69 ae 2d bd 87 b5 5c bd 3f 08 4d bd
       -0.0480334 -0.04240266 -0.053884055 -0.050056692
0001b0 6d 95 56 bd 69 1c 4b bd ff 6c 0f bb 46 32 26 3a
       -0.052388597 -0.04958764 -0.0021885035 0.0006339889
0001c0 ee 8f be bb 10 68 2d ba 00 55 45 b8 50 da 82 3b
       -0.0058154976 -0.0006614933 -4.7047623e-05 0.00399331
0001d0 80 c4 21 38 e6 26 ca ba fb f8 c7 ba 82 cd f3 bb
       3.8568396e-05 -0.001542297 -0.0015256697 -0.00744027
