mnist_keras/weights/layer_0.npy (npy, 37760 bytes, 1 tensors)

array f4 [784, 12]
0	0xbcb8c198	-0.02255325
1	0xbc277320	-0.010220319
2	0x3d8ce55d	0.06879685
3	0x3b8e3680	0.004339993
4	0xbd139ecc	-0.036040112
5	0xbcb937f0	-0.02260968
6	0x3da012e9	0.07816107
7	0x3d5f4782	0.054511555
8	0x3d0e419c	0.03473054
9	0xbb005240	-0.0019580275
10	0xbc942bc4	-0.018087275
11	0xbb930040	-0.004486114
12	0x3c66f240	0.014095843
13	0xbd8be023	-0.0682986
14	0xbb729740	-0.0037016422
15	0x3d38aabe	0.045084707
16	0x3cfb13ec	0.030649148
17	0x3da205d3	0.07911267
18	0xbd3b81db	-0.045778137
19	0xbd0bcc8f	-0.03413063
20	0x3d120372	0.035647817
21	0xbc058ba8	-0.008150972
22	0xbd8a734a	-0.06760271
23	0xbd9fa262	-0.07794644
24	0xbd89dd91	-0.067317136
25	0x3cb97db0	0.02264294
26	0xbd73c7d0	-0.059516728
27	0x3ce09a80	0.027417421
28	0x3d74db66	0.059779547
29	0x3d8c0c17	0.068382435
30	0xbacb8d40	-0.0015529767
31	0x3d7319f6	0.05935093
32	0x3d4ea0e6	0.050446413
33	0xbda01eb2	-0.07818355
34	0x3d8f604d	0.0700079
35	0x3da983d1	0.08277095
36	0xbd96bebc	-0.073605984
37	0xbd78fa9c	-0.060785875
38	0xbd014007	-0.0315552
39	0xbcd4eb1e	-0.025991019
40	0x3c775028	0.015094794
41	0x3ce0f7b4	0.027461864
42	0xbd04036f	-0.032229837
43	0xbd8bee07	-0.068325095
44	0x3da8a019	0.08233661
45	0xbd835185	-0.06412033
46	0x3da09727	0.0784133
47	0xbd4fab9a	-0.05070076
48	0x3d9a1a97	0.07524603
49	0x3d1a7868	0.037712485
50	0xbd14b0a1	-0.03630126
51	0x3cc1d4a4	0.023660965
52	0x3cc41384	0.023935087
53	0x3c924b24	0.017858095
54	0x3daaac05	0.08333591
55	0xbb2ad640	-0.0026067644
56	0x3d5f7da2	0.054563172
57	0xbd8e940f	-0.06961834
58	0x3d5c4d26	0.053784512
59	0xbd05e5a8	-0.03268972
60	0xbda41381	-0.080115326
61	0xbc370560	-0.011170715
62	0xbc850288	-0.016236559
63	0x3c311e60	0.010810465
64	0xbd01c3f9	-0.031681035
65	0xbd9c9323	-0.076452516
66	0x3baa2260	0.005192086
67	0xbd6fe4ae	-0.058567695
68	0xbd5f0864	-0.05445136
69	0x3c668a68	0.014071085
70	0x3cf22a8c	0.029561304
71	0xbd96d4f3	-0.073648356
72	0x3d80893d	0.06276176
73	0x39ae3f00	0.00033234805
74	0xbd9d023c	-0.07666442
75	0x3d51783a	0.051140048
76	0x3b9107a0	0.004425958
77	0xbcb072b8	-0.021539077
78	0xbda96a9d	-0.08272288
79	0x3d9018d9	0.07035989
80	0x3d43c9fa	0.04780004
81	0xbc274b20	-0.010210782
82	0xbcf3e2dc	-0.02977126
83	0x3d682332	0.05667419
84	0xbc164758	-0.009172283
85	0x3c8f2bc8	0.017476931
86	0xbcea86ce	-0.028628733
87	0x3c02af18	0.007976316
88	0x3c9b3bd8	0.018949434
89	0xbd281ac3	-0.041041147
90	0x3d44fad2	0.048090763
91	0x3cc9b0a4	0.024620362
92	0xbcc7164c	-0.024302624
93	0xbd2d4faa	-0.0423123
94	0x3bf3dc80	0.007442057
95	0xbc052858	-0.0081272945
96	0x3d943371	0.07236374
97	0xbda9c12a	-0.08288796
98	0x3d997055	0.07492129
99	0xbbf15660	-0.007365033
100	0xbd8f12d6	-0.069860145
101	0x3d017f8e	0.031615786
102	0x3cf65f4c	0.030074738
103	0x3d52cc0e	0.051464133
104	0xbd3aeba9	-0.0456349
105	0x3d3caba6	0.046062134
106	0xbd11e90e	-0.03562265
107	0x3da0fbc3	0.0786052
108	0x3d7ccd42	0.061719187
109	0x3d93ce01	0.072170265
110	0xbd2708e9	-0.04077998
111	0x3d36957e	0.04457616
112	0x3cfd5efc	0.030929081
113	0xbc426600	-0.011865139
114	0xbcf8eb44	-0.03038562
115	0xbd0a45a7	-0.033757832
116	0xbda00917	-0.07814234
117	0xbd830031	-0.06396521
118	0x3ca2bd8c	0.019865774
119	0x3cde1158	0.02710788
120	0xbba3d300	-0.0049995184
121	0x3d07a04e	0.033111863
122	0xbd60a3be	-0.054843657
123	0xbda677b2	-0.08128299
124	0x3be5f5a0	0.007017806
125	0x3d85542d	0.06510196
126	0x3d89a2cb	0.067205034
127	0xbbee0520	-0.0072637945
128	0x3d142a30	0.036173046
129	0x3d6d942a	0.05800263
130	0x3da8944d	0.08231411
131	0xbd98675c	-0.07441589
132	0x3d02d956	0.03194555
133	0xbd9f8182	-0.077883735
134	0xbc5291f0	-0.012852177
135	0xbd9043c2	-0.07044174
136	0xbd43f5dd	-0.047841895
137	0x3cf756fc	0.030192845
138	0xbd3f0806	-0.04663851
139	0x3d962543	0.07331326
140	0xbd372d57	-0.044720974
141	0xbcd75e16	-0.02628998
142	0x3d83d077	0.06436246
143	0x3d21de8e	0.039518885
144	0x3b90b367	0.0044159177
145	0xbda15680	-0.07877827
146	0x3da283a1	0.079352625
147	0x3d04fa61	0.032465342
148	0x3c9afe7f	0.018920181
149	0xbbddbc25	-0.0067668133
150	0x3d080613	0.033208918
151	0x3c01127e	0.007877944
152	0xbd65b1f5	-0.056077916
153	0xbd998eaa	-0.07497914
154	0x3d19ef76	0.037581883
155	0xbcbef28a	-0.023309011
156	0xbd1e60fb	-0.038666707
157	0x3daacba4	0.083396226
158	0x3c8d7828	0.017269209
159	0x3d3471a1	0.044053677
160	0x3d28d9e5	0.041223425
161	0xbdb104db	-0.08643504
162	0xbd989860	-0.07450938
163	0x3d4097e2	0.047019847
164	0xbd5174ac	-0.051136658
165	0xbc505b9f	-0.012717157
166	0x3c9b637b	0.018968334
167	0x3c00c4d8	0.007859431
168	0x3d3a2d0b	0.045453113
169	0xbd650d58	-0.05592093
170	0x3d21f90c	0.03954415
171	0x3d105cb1	0.035244647
172	0xbcfe36e1	-0.031032028
173	0xbd27ad1f	-0.040936586
174	0x3d7075fe	0.058706276
175	0x3dcd956c	0.100382656
176	0x3daca644	0.0843015
177	0x3d1cb35c	0.038256988
178	0x3cf10d99	0.02942543
179	0x3cd66d94	0.026175298
180	0x3bac88d3	0.005265334
181	0xbd75a614	-0.059972838
182	0xbd154123	-0.036439072
183	0x3cf8a5b4	0.03035245
184	0x3d1b4a78	0.037912816
185	0x3d6a4183	0.057191383
186	0x3d8efab9	0.06981415
187	0x3d894b2a	0.067037895
188	0x3db63d86	0.088984534
189	0xbd335101	-0.043778423
190	0x3d58773d	0.05284809
191	0xbd0522c6	-0.032503866
192	0x3d79a86a	0.060951628
193	0xbd907251	-0.07053054
194	0xbcd87a08	-0.026425377
195	0xbbdc9500	-0.0067316294
196	0x3da90c2d	0.082542755
197	0x3caf9064	0.021431156
198	0xbcc802b6	-0.024415355
199	0xbdaf3876	-0.08555691
200	0xbd4139e6	-0.047174357
201	0x3d772e06	0.060346626
202	0xbd7eb19c	-0.0621811
203	0xbd980628	-0.07423049
204	0x3d5b8ad6	0.0535992
205	0x3c95b9cc	0.018277071
206	0x3d5b6ee6	0.053572558
207	0x3d3b789e	0.045769326
208	0x3d96ed05	0.07369427
209	0xbd0ad4f3	-0.03389449
210	0xbd5aedce	-0.053449444
211	0x3d4ed05e	0.050491683
212	0x3c41a5a0	0.011819273
213	0x3d127792	0.035758562
214	0xbd9a7391	-0.07541574
215	0x3d7d6cfa	0.061871506
216	0xbd07f453	-0.03319199
217	0xbdaaade0	-0.08333945
218	0x3d8ad119	0.067781635
219	0xbd5022f5	-0.050814588
220	0x3c938860	0.018009365
221	0xbb41d240	-0.0029574782
222	0x3bca21b0	0.0061685666
223	0x3d5e4ee6	0.054274462
224	0xbdaed7d7	-0.08537262
225	0x3da018db	0.07817241
226	0x3b23af60	0.0024976358
227	0xbc5f9088	-0.013645299
228	0xbd2392b2	-0.03993482
229	0xbd4a88ef	-0.049446996
230	0xbd801a46	-0.06255011
231	0xb9f4ae00	-0.00046668947
232	0xbd27d38c	-0.04097323
233	0xbba6a8e0	-0.0050860494
234	0x3dab0cdf	0.08352064
235	0xbd89a436	-0.06720774
236	0xbd8b529f	-0.06802868
237	0x3d8b11fb	0.06790539
238	0x3c2f5a78	0.010702722
239	0xbb071c60	-0.0020616278
240	0x3d7c445a	0.061588623
241	0x3d4eec3a	0.050518252
242	0xbdacba18	-0.08433932
243	0xbd01e487	-0.03171208
244	0xbd48f5d9	-0.049062584
245	0xbc8514c4	-0.016245253
246	0xbcc097b4	-0.023509838
247	0xbd828143	-0.06372311
248	0xbd4a2ced	-0.04935925
249	0xbca17548	-0.019709244
250	0xbc8d63e4	-0.017259546
251	0x3d4b5a42	0.049646623
252	0xbc972e40	-0.01845467
253	0xbd84ba23	-0.06480815
254	0x3d82abbd	0.06380413
255	0xbd479037	-0.04872152
